…
2018-10-24 12:10:06.747715: I tensorflow/core/common_runtime/gpu/gpu_device.cc:1097] Created TensorFlow device (/job:localhost/replica:0/task:0/device:GPU:0 with 5278 MB memory) -> physical GPU (device: 0, name: Tesla K20Xm, pci bus id: 0000:03:00.0, compute capability: 3.5)
2018-10-24 12:10:10,992 : INFO : building model
2018-10-24 12:10:11,215 : INFO : training the model
__________________________________________________________________________________________________
Layer (type)                    Output Shape         Param #     Connected to                     
==================================================================================================
input_1 (InputLayer)            (None, 50)           0                                            
__________________________________________________________________________________________________
embedding_1 (Sequential)        (None, 50, 300, 1)   3988800     input_1[0][0]                    
__________________________________________________________________________________________________
conv2d_1 (Conv2D)               (None, 48, 1, 100)   90100       embedding_1[1][0]                
__________________________________________________________________________________________________
conv2d_2 (Conv2D)               (None, 47, 1, 100)   120100      embedding_1[1][0]                
__________________________________________________________________________________________________
conv2d_3 (Conv2D)               (None, 46, 1, 100)   150100      embedding_1[1][0]                
__________________________________________________________________________________________________
reshape_2 (Reshape)             (None, 48, 100)      0           conv2d_1[0][0]                   
__________________________________________________________________________________________________
reshape_3 (Reshape)             (None, 47, 100)      0           conv2d_2[0][0]                   
__________________________________________________________________________________________________
reshape_4 (Reshape)             (None, 46, 100)      0           conv2d_3[0][0]                   
__________________________________________________________________________________________________
global_max_pooling1d_1 (GlobalM (None, 100)          0           reshape_2[0][0]                  
__________________________________________________________________________________________________
global_max_pooling1d_2 (GlobalM (None, 100)          0           reshape_3[0][0]                  
__________________________________________________________________________________________________
global_max_pooling1d_3 (GlobalM (None, 100)          0           reshape_4[0][0]                  
__________________________________________________________________________________________________
concatenate_1 (Concatenate)     (None, 300)          0           global_max_pooling1d_1[0][0]     
                                                                 global_max_pooling1d_2[0][0]     
                                                                 global_max_pooling1d_3[0][0]     
__________________________________________________________________________________________________
dropout_1 (Dropout)             (None, 300)          0           concatenate_1[0][0]              
__________________________________________________________________________________________________
dense_1 (Dense)                 (None, 2)            602         dropout_1[0][0]                  
==================================================================================================
Total params: 4,349,702
Trainable params: 360,902
Non-trainable params: 3,988,800
__________________________________________________________________________________________________
Train on 6557 samples, validate on 825 samples
Epoch 1/30

 256/6557 [>.............................] - ETA: 2:09 - loss: 0.7045 - acc: 0.5078
…
