…
2018-10-25 17:26:10.449656: I tensorflow/core/common_runtime/gpu/gpu_device.cc:1097] Created TensorFlow device (/job:localhost/replica:0/task:0/device:GPU:0 with 5278 MB memory) -> physical GPU (device: 0, name: Tesla K20Xm, pci bus id: 0000:84:00.0, compute capability: 3.5)
2018-10-25 17:26:10,740 : INFO : training the model
__________________________________________________________________________________________________
Layer (type)                    Output Shape         Param #     Connected to                     
==================================================================================================
input_1 (InputLayer)            (None, 50)           0                                            
__________________________________________________________________________________________________
embedding_1 (Embedding)         (None, 50, 300)      3988800     input_1[0][0]                    
__________________________________________________________________________________________________
conv1d_1 (Conv1D)               (None, 48, 50)       45050       embedding_1[0][0]                
__________________________________________________________________________________________________
conv1d_2 (Conv1D)               (None, 47, 50)       60050       embedding_1[0][0]                
__________________________________________________________________________________________________
conv1d_3 (Conv1D)               (None, 46, 50)       75050       embedding_1[0][0]                
__________________________________________________________________________________________________
activation_1 (Activation)       (None, 48, 50)       0           conv1d_1[0][0]                   
__________________________________________________________________________________________________
activation_2 (Activation)       (None, 47, 50)       0           conv1d_2[0][0]                   
__________________________________________________________________________________________________
activation_3 (Activation)       (None, 46, 50)       0           conv1d_3[0][0]                   
__________________________________________________________________________________________________
global_max_pooling1d_1 (GlobalM (None, 50)           0           activation_1[0][0]               
__________________________________________________________________________________________________
global_max_pooling1d_2 (GlobalM (None, 50)           0           activation_2[0][0]               
__________________________________________________________________________________________________
global_max_pooling1d_3 (GlobalM (None, 50)           0           activation_3[0][0]               
__________________________________________________________________________________________________
concatenate_1 (Concatenate)     (None, 150)          0           global_max_pooling1d_1[0][0]     
                                                                 global_max_pooling1d_2[0][0]     
                                                                 global_max_pooling1d_3[0][0]     
__________________________________________________________________________________________________
dropout_1 (Dropout)             (None, 150)          0           concatenate_1[0][0]              
__________________________________________________________________________________________________
dense_1 (Dense)                 (None, 2)            302         dropout_1[0][0]                  
==================================================================================================
Total params: 4,169,252
Trainable params: 180,452
Non-trainable params: 3,988,800
__________________________________________________________________________________________________
Train on 6557 samples, validate on 825 samples
Epoch 1/30

 256/6557 [>.............................] - ETA: 56s - loss: 1.1247 - acc: 0.5117
…
2018-10-25 17:28:30.996564: I tensorflow/core/common_runtime/gpu/gpu_device.cc:1097] Created TensorFlow device (/job:localhost/replica:0/task:0/device:GPU:0 with 5278 MB memory) -> physical GPU (device: 0, name: Tesla K20Xm, pci bus id: 0000:84:00.0, compute capability: 3.5)
2018-10-25 17:28:31,294 : INFO : training the model
__________________________________________________________________________________________________
Layer (type)                    Output Shape         Param #     Connected to                     
==================================================================================================
input_1 (InputLayer)            (None, 50)           0                                            
__________________________________________________________________________________________________
embedding_1 (Embedding)         (None, 50, 300)      3988800     input_1[0][0]                    
__________________________________________________________________________________________________
conv1d_1 (Conv1D)               (None, 48, 100)      90100       embedding_1[0][0]                
__________________________________________________________________________________________________
conv1d_2 (Conv1D)               (None, 47, 100)      120100      embedding_1[0][0]                
__________________________________________________________________________________________________
conv1d_3 (Conv1D)               (None, 46, 100)      150100      embedding_1[0][0]                
__________________________________________________________________________________________________
activation_1 (Activation)       (None, 48, 100)      0           conv1d_1[0][0]                   
__________________________________________________________________________________________________
activation_2 (Activation)       (None, 47, 100)      0           conv1d_2[0][0]                   
__________________________________________________________________________________________________
activation_3 (Activation)       (None, 46, 100)      0           conv1d_3[0][0]                   
__________________________________________________________________________________________________
global_max_pooling1d_1 (GlobalM (None, 100)          0           activation_1[0][0]               
__________________________________________________________________________________________________
global_max_pooling1d_2 (GlobalM (None, 100)          0           activation_2[0][0]               
__________________________________________________________________________________________________
global_max_pooling1d_3 (GlobalM (None, 100)          0           activation_3[0][0]               
__________________________________________________________________________________________________
concatenate_1 (Concatenate)     (None, 300)          0           global_max_pooling1d_1[0][0]     
                                                                 global_max_pooling1d_2[0][0]     
                                                                 global_max_pooling1d_3[0][0]     
__________________________________________________________________________________________________
dropout_1 (Dropout)             (None, 300)          0           concatenate_1[0][0]              
__________________________________________________________________________________________________
dense_1 (Dense)                 (None, 2)            602         dropout_1[0][0]                  
==================================================================================================
Total params: 4,349,702
Trainable params: 360,902
Non-trainable params: 3,988,800
__________________________________________________________________________________________________
Train on 6557 samples, validate on 825 samples
Epoch 1/30

 256/6557 [>.............................] - ETA: 1:04 - loss: 1.0831 - acc: 0.5078
…
2018-10-25 17:30:45.671432: I tensorflow/core/common_runtime/gpu/gpu_device.cc:1097] Created TensorFlow device (/job:localhost/replica:0/task:0/device:GPU:0 with 5278 MB memory) -> physical GPU (device: 0, name: Tesla K20Xm, pci bus id: 0000:84:00.0, compute capability: 3.5)
2018-10-25 17:30:45,962 : INFO : training the model
__________________________________________________________________________________________________
Layer (type)                    Output Shape         Param #     Connected to                     
==================================================================================================
input_1 (InputLayer)            (None, 50)           0                                            
__________________________________________________________________________________________________
embedding_1 (Embedding)         (None, 50, 300)      3988800     input_1[0][0]                    
__________________________________________________________________________________________________
conv1d_1 (Conv1D)               (None, 48, 200)      180200      embedding_1[0][0]                
__________________________________________________________________________________________________
conv1d_2 (Conv1D)               (None, 47, 200)      240200      embedding_1[0][0]                
__________________________________________________________________________________________________
conv1d_3 (Conv1D)               (None, 46, 200)      300200      embedding_1[0][0]                
__________________________________________________________________________________________________
activation_1 (Activation)       (None, 48, 200)      0           conv1d_1[0][0]                   
__________________________________________________________________________________________________
activation_2 (Activation)       (None, 47, 200)      0           conv1d_2[0][0]                   
__________________________________________________________________________________________________
activation_3 (Activation)       (None, 46, 200)      0           conv1d_3[0][0]                   
__________________________________________________________________________________________________
global_max_pooling1d_1 (GlobalM (None, 200)          0           activation_1[0][0]               
__________________________________________________________________________________________________
global_max_pooling1d_2 (GlobalM (None, 200)          0           activation_2[0][0]               
__________________________________________________________________________________________________
global_max_pooling1d_3 (GlobalM (None, 200)          0           activation_3[0][0]               
__________________________________________________________________________________________________
concatenate_1 (Concatenate)     (None, 600)          0           global_max_pooling1d_1[0][0]     
                                                                 global_max_pooling1d_2[0][0]     
                                                                 global_max_pooling1d_3[0][0]     
__________________________________________________________________________________________________
dropout_1 (Dropout)             (None, 600)          0           concatenate_1[0][0]              
__________________________________________________________________________________________________
dense_1 (Dense)                 (None, 2)            1202        dropout_1[0][0]                  
==================================================================================================
Total params: 4,710,602
Trainable params: 721,802
Non-trainable params: 3,988,800
__________________________________________________________________________________________________
Train on 6557 samples, validate on 825 samples
Epoch 1/30

 256/6557 [>.............................] - ETA: 47s - loss: 1.0322 - acc: 0.5000
…
2018-10-25 17:33:14.032796: I tensorflow/core/common_runtime/gpu/gpu_device.cc:1097] Created TensorFlow device (/job:localhost/replica:0/task:0/device:GPU:0 with 5278 MB memory) -> physical GPU (device: 0, name: Tesla K20Xm, pci bus id: 0000:84:00.0, compute capability: 3.5)
2018-10-25 17:33:14,318 : INFO : training the model
__________________________________________________________________________________________________
Layer (type)                    Output Shape         Param #     Connected to                     
==================================================================================================
input_1 (InputLayer)            (None, 50)           0                                            
__________________________________________________________________________________________________
embedding_1 (Embedding)         (None, 50, 300)      3988800     input_1[0][0]                    
__________________________________________________________________________________________________
conv1d_1 (Conv1D)               (None, 48, 300)      270300      embedding_1[0][0]                
__________________________________________________________________________________________________
conv1d_2 (Conv1D)               (None, 47, 300)      360300      embedding_1[0][0]                
__________________________________________________________________________________________________
conv1d_3 (Conv1D)               (None, 46, 300)      450300      embedding_1[0][0]                
__________________________________________________________________________________________________
activation_1 (Activation)       (None, 48, 300)      0           conv1d_1[0][0]                   
__________________________________________________________________________________________________
activation_2 (Activation)       (None, 47, 300)      0           conv1d_2[0][0]                   
__________________________________________________________________________________________________
activation_3 (Activation)       (None, 46, 300)      0           conv1d_3[0][0]                   
__________________________________________________________________________________________________
global_max_pooling1d_1 (GlobalM (None, 300)          0           activation_1[0][0]               
__________________________________________________________________________________________________
global_max_pooling1d_2 (GlobalM (None, 300)          0           activation_2[0][0]               
__________________________________________________________________________________________________
global_max_pooling1d_3 (GlobalM (None, 300)          0           activation_3[0][0]               
__________________________________________________________________________________________________
concatenate_1 (Concatenate)     (None, 900)          0           global_max_pooling1d_1[0][0]     
                                                                 global_max_pooling1d_2[0][0]     
                                                                 global_max_pooling1d_3[0][0]     
__________________________________________________________________________________________________
dropout_1 (Dropout)             (None, 900)          0           concatenate_1[0][0]              
__________________________________________________________________________________________________
dense_1 (Dense)                 (None, 2)            1802        dropout_1[0][0]                  
==================================================================================================
Total params: 5,071,502
Trainable params: 1,082,702
Non-trainable params: 3,988,800
__________________________________________________________________________________________________
Train on 6557 samples, validate on 825 samples
Epoch 1/30

 256/6557 [>.............................] - ETA: 1:00 - loss: 0.9816 - acc: 0.4922
…
2018-10-25 17:35:49.053021: I tensorflow/core/common_runtime/gpu/gpu_device.cc:1097] Created TensorFlow device (/job:localhost/replica:0/task:0/device:GPU:0 with 5278 MB memory) -> physical GPU (device: 0, name: Tesla K20Xm, pci bus id: 0000:84:00.0, compute capability: 3.5)
2018-10-25 17:35:49,342 : INFO : training the model
__________________________________________________________________________________________________
Layer (type)                    Output Shape         Param #     Connected to                     
==================================================================================================
input_1 (InputLayer)            (None, 50)           0                                            
__________________________________________________________________________________________________
embedding_1 (Embedding)         (None, 50, 300)      3988800     input_1[0][0]                    
__________________________________________________________________________________________________
conv1d_1 (Conv1D)               (None, 48, 500)      450500      embedding_1[0][0]                
__________________________________________________________________________________________________
conv1d_2 (Conv1D)               (None, 47, 500)      600500      embedding_1[0][0]                
__________________________________________________________________________________________________
conv1d_3 (Conv1D)               (None, 46, 500)      750500      embedding_1[0][0]                
__________________________________________________________________________________________________
activation_1 (Activation)       (None, 48, 500)      0           conv1d_1[0][0]                   
__________________________________________________________________________________________________
activation_2 (Activation)       (None, 47, 500)      0           conv1d_2[0][0]                   
__________________________________________________________________________________________________
activation_3 (Activation)       (None, 46, 500)      0           conv1d_3[0][0]                   
__________________________________________________________________________________________________
global_max_pooling1d_1 (GlobalM (None, 500)          0           activation_1[0][0]               
__________________________________________________________________________________________________
global_max_pooling1d_2 (GlobalM (None, 500)          0           activation_2[0][0]               
__________________________________________________________________________________________________
global_max_pooling1d_3 (GlobalM (None, 500)          0           activation_3[0][0]               
__________________________________________________________________________________________________
concatenate_1 (Concatenate)     (None, 1500)         0           global_max_pooling1d_1[0][0]     
                                                                 global_max_pooling1d_2[0][0]     
                                                                 global_max_pooling1d_3[0][0]     
__________________________________________________________________________________________________
dropout_1 (Dropout)             (None, 1500)         0           concatenate_1[0][0]              
__________________________________________________________________________________________________
dense_1 (Dense)                 (None, 2)            3002        dropout_1[0][0]                  
==================================================================================================
Total params: 5,793,302
Trainable params: 1,804,502
Non-trainable params: 3,988,800
__________________________________________________________________________________________________
Train on 6557 samples, validate on 825 samples
Epoch 1/30

 256/6557 [>.............................] - ETA: 47s - loss: 0.8934 - acc: 0.5547
…
2018-10-25 17:38:31.048295: I tensorflow/core/common_runtime/gpu/gpu_device.cc:1097] Created TensorFlow device (/job:localhost/replica:0/task:0/device:GPU:0 with 5278 MB memory) -> physical GPU (device: 0, name: Tesla K20Xm, pci bus id: 0000:84:00.0, compute capability: 3.5)
2018-10-25 17:38:31,348 : INFO : training the model
__________________________________________________________________________________________________
Layer (type)                    Output Shape         Param #     Connected to                     
==================================================================================================
input_1 (InputLayer)            (None, 50)           0                                            
__________________________________________________________________________________________________
embedding_1 (Embedding)         (None, 50, 300)      3988800     input_1[0][0]                    
__________________________________________________________________________________________________
conv1d_1 (Conv1D)               (None, 48, 1000)     901000      embedding_1[0][0]                
__________________________________________________________________________________________________
conv1d_2 (Conv1D)               (None, 47, 1000)     1201000     embedding_1[0][0]                
__________________________________________________________________________________________________
conv1d_3 (Conv1D)               (None, 46, 1000)     1501000     embedding_1[0][0]                
__________________________________________________________________________________________________
activation_1 (Activation)       (None, 48, 1000)     0           conv1d_1[0][0]                   
__________________________________________________________________________________________________
activation_2 (Activation)       (None, 47, 1000)     0           conv1d_2[0][0]                   
__________________________________________________________________________________________________
activation_3 (Activation)       (None, 46, 1000)     0           conv1d_3[0][0]                   
__________________________________________________________________________________________________
global_max_pooling1d_1 (GlobalM (None, 1000)         0           activation_1[0][0]               
__________________________________________________________________________________________________
global_max_pooling1d_2 (GlobalM (None, 1000)         0           activation_2[0][0]               
__________________________________________________________________________________________________
global_max_pooling1d_3 (GlobalM (None, 1000)         0           activation_3[0][0]               
__________________________________________________________________________________________________
concatenate_1 (Concatenate)     (None, 3000)         0           global_max_pooling1d_1[0][0]     
                                                                 global_max_pooling1d_2[0][0]     
                                                                 global_max_pooling1d_3[0][0]     
__________________________________________________________________________________________________
dropout_1 (Dropout)             (None, 3000)         0           concatenate_1[0][0]              
__________________________________________________________________________________________________
dense_1 (Dense)                 (None, 2)            6002        dropout_1[0][0]                  
==================================================================================================
Total params: 7,597,802
Trainable params: 3,609,002
Non-trainable params: 3,988,800
__________________________________________________________________________________________________
Train on 6557 samples, validate on 825 samples
Epoch 1/30

 256/6557 [>.............................] - ETA: 1:14 - loss: 1.1325 - acc: 0.4688
…
