…
2018-10-25 19:41:33.544073: I tensorflow/core/common_runtime/gpu/gpu_device.cc:1097] Created TensorFlow device (/job:localhost/replica:0/task:0/device:GPU:0 with 5278 MB memory) -> physical GPU (device: 0, name: Tesla K20Xm, pci bus id: 0000:03:00.0, compute capability: 3.5)
2018-10-25 19:41:33,948 : INFO : training the model
__________________________________________________________________________________________________
Layer (type)                    Output Shape         Param #     Connected to                     
==================================================================================================
input_1 (InputLayer)            (None, 50)           0                                            
__________________________________________________________________________________________________
embedding_1 (Embedding)         (None, 50, 300)      4838700     input_1[0][0]                    
__________________________________________________________________________________________________
conv1d_1 (Conv1D)               (None, 48, 100)      90100       embedding_1[0][0]                
__________________________________________________________________________________________________
conv1d_2 (Conv1D)               (None, 47, 100)      120100      embedding_1[0][0]                
__________________________________________________________________________________________________
conv1d_3 (Conv1D)               (None, 46, 100)      150100      embedding_1[0][0]                
__________________________________________________________________________________________________
activation_1 (Activation)       (None, 48, 100)      0           conv1d_1[0][0]                   
__________________________________________________________________________________________________
activation_2 (Activation)       (None, 47, 100)      0           conv1d_2[0][0]                   
__________________________________________________________________________________________________
activation_3 (Activation)       (None, 46, 100)      0           conv1d_3[0][0]                   
__________________________________________________________________________________________________
global_max_pooling1d_1 (GlobalM (None, 100)          0           activation_1[0][0]               
__________________________________________________________________________________________________
global_max_pooling1d_2 (GlobalM (None, 100)          0           activation_2[0][0]               
__________________________________________________________________________________________________
global_max_pooling1d_3 (GlobalM (None, 100)          0           activation_3[0][0]               
__________________________________________________________________________________________________
concatenate_1 (Concatenate)     (None, 300)          0           global_max_pooling1d_1[0][0]     
                                                                 global_max_pooling1d_2[0][0]     
                                                                 global_max_pooling1d_3[0][0]     
__________________________________________________________________________________________________
dropout_1 (Dropout)             (None, 300)          0           concatenate_1[0][0]              
__________________________________________________________________________________________________
dense_1 (Dense)                 (None, 2)            602         dropout_1[0][0]                  
==================================================================================================
Total params: 5,199,602
Trainable params: 360,902
Non-trainable params: 4,838,700
__________________________________________________________________________________________________
Train on 6557 samples, validate on 825 samples
Epoch 1/30

 256/6557 [>.............................] - ETA: 57s - loss: 1.4557 - acc: 0.4883
…
2018-10-25 19:44:36.139003: I tensorflow/core/common_runtime/gpu/gpu_device.cc:1097] Created TensorFlow device (/job:localhost/replica:0/task:0/device:GPU:0 with 5278 MB memory) -> physical GPU (device: 0, name: Tesla K20Xm, pci bus id: 0000:03:00.0, compute capability: 3.5)
2018-10-25 19:44:36,544 : INFO : training the model
__________________________________________________________________________________________________
Layer (type)                    Output Shape         Param #     Connected to                     
==================================================================================================
input_1 (InputLayer)            (None, 50)           0                                            
__________________________________________________________________________________________________
embedding_1 (Embedding)         (None, 50, 300)      3397500     input_1[0][0]                    
__________________________________________________________________________________________________
conv1d_1 (Conv1D)               (None, 48, 100)      90100       embedding_1[0][0]                
__________________________________________________________________________________________________
conv1d_2 (Conv1D)               (None, 47, 100)      120100      embedding_1[0][0]                
__________________________________________________________________________________________________
conv1d_3 (Conv1D)               (None, 46, 100)      150100      embedding_1[0][0]                
__________________________________________________________________________________________________
activation_1 (Activation)       (None, 48, 100)      0           conv1d_1[0][0]                   
__________________________________________________________________________________________________
activation_2 (Activation)       (None, 47, 100)      0           conv1d_2[0][0]                   
__________________________________________________________________________________________________
activation_3 (Activation)       (None, 46, 100)      0           conv1d_3[0][0]                   
__________________________________________________________________________________________________
global_max_pooling1d_1 (GlobalM (None, 100)          0           activation_1[0][0]               
__________________________________________________________________________________________________
global_max_pooling1d_2 (GlobalM (None, 100)          0           activation_2[0][0]               
__________________________________________________________________________________________________
global_max_pooling1d_3 (GlobalM (None, 100)          0           activation_3[0][0]               
__________________________________________________________________________________________________
concatenate_1 (Concatenate)     (None, 300)          0           global_max_pooling1d_1[0][0]     
                                                                 global_max_pooling1d_2[0][0]     
                                                                 global_max_pooling1d_3[0][0]     
__________________________________________________________________________________________________
dropout_1 (Dropout)             (None, 300)          0           concatenate_1[0][0]              
__________________________________________________________________________________________________
dense_1 (Dense)                 (None, 2)            602         dropout_1[0][0]                  
==================================================================================================
Total params: 3,758,402
Trainable params: 360,902
Non-trainable params: 3,397,500
__________________________________________________________________________________________________
Train on 6557 samples, validate on 825 samples
Epoch 1/30

 256/6557 [>.............................] - ETA: 1:16 - loss: 2.4036 - acc: 0.4609
…
