…
2018-10-24 01:52:33.403100: I tensorflow/core/common_runtime/gpu/gpu_device.cc:1097] Created TensorFlow device (/job:localhost/replica:0/task:0/device:GPU:0 with 5278 MB memory) -> physical GPU (device: 0, name: Tesla K20Xm, pci bus id: 0000:84:00.0, compute capability: 3.5)
2018-10-24 01:52:33,621 : INFO : building model
2018-10-24 01:52:33,755 : INFO : training the model
_________________________________________________________________
Layer (type)                 Output Shape              Param #   
=================================================================
input_1 (InputLayer)         (None, 50)                0         
_________________________________________________________________
embedding_1 (Sequential)     (None, 50, 300, 1)        3988800   
_________________________________________________________________
conv2d_1 (Conv2D)            (None, 50, 1, 100)        30100     
_________________________________________________________________
reshape_2 (Reshape)          (None, 50, 100)           0         
_________________________________________________________________
global_max_pooling1d_1 (Glob (None, 100)               0         
_________________________________________________________________
dropout_1 (Dropout)          (None, 100)               0         
_________________________________________________________________
dense_1 (Dense)              (None, 2)                 202       
=================================================================
Total params: 4,019,102
Trainable params: 30,302
Non-trainable params: 3,988,800
_________________________________________________________________
Train on 6557 samples, validate on 825 samples
Epoch 1/30

 256/6557 [>.............................] - ETA: 39s - loss: 0.7372 - acc: 0.5039
2048/6557 [========>.....................] - ETA: 3s - loss: 0.7151 - acc: 0.5347 
…
2018-10-24 01:52:49.284185: I tensorflow/core/common_runtime/gpu/gpu_device.cc:1097] Created TensorFlow device (/job:localhost/replica:0/task:0/device:GPU:0 with 5278 MB memory) -> physical GPU (device: 0, name: Tesla K20Xm, pci bus id: 0000:84:00.0, compute capability: 3.5)
2018-10-24 01:52:49,502 : INFO : building model
2018-10-24 01:52:49,636 : INFO : training the model
_________________________________________________________________
Layer (type)                 Output Shape              Param #   
=================================================================
input_1 (InputLayer)         (None, 50)                0         
_________________________________________________________________
embedding_1 (Sequential)     (None, 50, 300, 1)        3988800   
_________________________________________________________________
conv2d_1 (Conv2D)            (None, 48, 1, 100)        90100     
_________________________________________________________________
reshape_2 (Reshape)          (None, 48, 100)           0         
_________________________________________________________________
global_max_pooling1d_1 (Glob (None, 100)               0         
_________________________________________________________________
dropout_1 (Dropout)          (None, 100)               0         
_________________________________________________________________
dense_1 (Dense)              (None, 2)                 202       
=================================================================
Total params: 4,079,102
Trainable params: 90,302
Non-trainable params: 3,988,800
_________________________________________________________________
Train on 6557 samples, validate on 825 samples
Epoch 1/30

 256/6557 [>.............................] - ETA: 39s - loss: 0.7335 - acc: 0.5078
1536/6557 [======>.......................] - ETA: 5s - loss: 0.7610 - acc: 0.5234 
…
2018-10-24 01:53:14.704888: I tensorflow/core/common_runtime/gpu/gpu_device.cc:1097] Created TensorFlow device (/job:localhost/replica:0/task:0/device:GPU:0 with 5278 MB memory) -> physical GPU (device: 0, name: Tesla K20Xm, pci bus id: 0000:84:00.0, compute capability: 3.5)
2018-10-24 01:53:14,922 : INFO : building model
2018-10-24 01:53:15,058 : INFO : training the model
_________________________________________________________________
Layer (type)                 Output Shape              Param #   
=================================================================
input_1 (InputLayer)         (None, 50)                0         
_________________________________________________________________
embedding_1 (Sequential)     (None, 50, 300, 1)        3988800   
_________________________________________________________________
conv2d_1 (Conv2D)            (None, 46, 1, 100)        150100    
_________________________________________________________________
reshape_2 (Reshape)          (None, 46, 100)           0         
_________________________________________________________________
global_max_pooling1d_1 (Glob (None, 100)               0         
_________________________________________________________________
dropout_1 (Dropout)          (None, 100)               0         
_________________________________________________________________
dense_1 (Dense)              (None, 2)                 202       
=================================================================
Total params: 4,139,102
Trainable params: 150,302
Non-trainable params: 3,988,800
_________________________________________________________________
Train on 6557 samples, validate on 825 samples
Epoch 1/30

 256/6557 [>.............................] - ETA: 39s - loss: 0.7412 - acc: 0.5039
1280/6557 [====>.........................] - ETA: 6s - loss: 0.8326 - acc: 0.5016 
…
2018-10-24 01:53:31.877659: I tensorflow/core/common_runtime/gpu/gpu_device.cc:1097] Created TensorFlow device (/job:localhost/replica:0/task:0/device:GPU:0 with 5278 MB memory) -> physical GPU (device: 0, name: Tesla K20Xm, pci bus id: 0000:84:00.0, compute capability: 3.5)
2018-10-24 01:53:32,095 : INFO : building model
2018-10-24 01:53:32,297 : INFO : training the model
__________________________________________________________________________________________________
Layer (type)                    Output Shape         Param #     Connected to                     
==================================================================================================
input_1 (InputLayer)            (None, 50)           0                                            
__________________________________________________________________________________________________
embedding_1 (Sequential)        (None, 50, 300, 1)   3988800     input_1[0][0]                    
__________________________________________________________________________________________________
conv2d_1 (Conv2D)               (None, 49, 1, 100)   60100       embedding_1[1][0]                
__________________________________________________________________________________________________
conv2d_2 (Conv2D)               (None, 48, 1, 100)   90100       embedding_1[1][0]                
__________________________________________________________________________________________________
conv2d_3 (Conv2D)               (None, 47, 1, 100)   120100      embedding_1[1][0]                
__________________________________________________________________________________________________
reshape_2 (Reshape)             (None, 49, 100)      0           conv2d_1[0][0]                   
__________________________________________________________________________________________________
reshape_3 (Reshape)             (None, 48, 100)      0           conv2d_2[0][0]                   
__________________________________________________________________________________________________
reshape_4 (Reshape)             (None, 47, 100)      0           conv2d_3[0][0]                   
__________________________________________________________________________________________________
global_max_pooling1d_1 (GlobalM (None, 100)          0           reshape_2[0][0]                  
__________________________________________________________________________________________________
global_max_pooling1d_2 (GlobalM (None, 100)          0           reshape_3[0][0]                  
__________________________________________________________________________________________________
global_max_pooling1d_3 (GlobalM (None, 100)          0           reshape_4[0][0]                  
__________________________________________________________________________________________________
concatenate_1 (Concatenate)     (None, 300)          0           global_max_pooling1d_1[0][0]     
                                                                 global_max_pooling1d_2[0][0]     
                                                                 global_max_pooling1d_3[0][0]     
__________________________________________________________________________________________________
dropout_1 (Dropout)             (None, 300)          0           concatenate_1[0][0]              
__________________________________________________________________________________________________
dense_1 (Dense)                 (None, 2)            602         dropout_1[0][0]                  
==================================================================================================
Total params: 4,259,702
Trainable params: 270,902
Non-trainable params: 3,988,800
__________________________________________________________________________________________________
Train on 6557 samples, validate on 825 samples
Epoch 1/30

 256/6557 [>.............................] - ETA: 45s - loss: 0.7419 - acc: 0.4922
…
2018-10-24 01:54:10.833573: I tensorflow/core/common_runtime/gpu/gpu_device.cc:1097] Created TensorFlow device (/job:localhost/replica:0/task:0/device:GPU:0 with 5278 MB memory) -> physical GPU (device: 0, name: Tesla K20Xm, pci bus id: 0000:84:00.0, compute capability: 3.5)
2018-10-24 01:54:11,052 : INFO : building model
2018-10-24 01:54:11,252 : INFO : training the model
__________________________________________________________________________________________________
Layer (type)                    Output Shape         Param #     Connected to                     
==================================================================================================
input_1 (InputLayer)            (None, 50)           0                                            
__________________________________________________________________________________________________
embedding_1 (Sequential)        (None, 50, 300, 1)   3988800     input_1[0][0]                    
__________________________________________________________________________________________________
conv2d_1 (Conv2D)               (None, 48, 1, 100)   90100       embedding_1[1][0]                
__________________________________________________________________________________________________
conv2d_2 (Conv2D)               (None, 47, 1, 100)   120100      embedding_1[1][0]                
__________________________________________________________________________________________________
conv2d_3 (Conv2D)               (None, 46, 1, 100)   150100      embedding_1[1][0]                
__________________________________________________________________________________________________
reshape_2 (Reshape)             (None, 48, 100)      0           conv2d_1[0][0]                   
__________________________________________________________________________________________________
reshape_3 (Reshape)             (None, 47, 100)      0           conv2d_2[0][0]                   
__________________________________________________________________________________________________
reshape_4 (Reshape)             (None, 46, 100)      0           conv2d_3[0][0]                   
__________________________________________________________________________________________________
global_max_pooling1d_1 (GlobalM (None, 100)          0           reshape_2[0][0]                  
__________________________________________________________________________________________________
global_max_pooling1d_2 (GlobalM (None, 100)          0           reshape_3[0][0]                  
__________________________________________________________________________________________________
global_max_pooling1d_3 (GlobalM (None, 100)          0           reshape_4[0][0]                  
__________________________________________________________________________________________________
concatenate_1 (Concatenate)     (None, 300)          0           global_max_pooling1d_1[0][0]     
                                                                 global_max_pooling1d_2[0][0]     
                                                                 global_max_pooling1d_3[0][0]     
__________________________________________________________________________________________________
dropout_1 (Dropout)             (None, 300)          0           concatenate_1[0][0]              
__________________________________________________________________________________________________
dense_1 (Dense)                 (None, 2)            602         dropout_1[0][0]                  
==================================================================================================
Total params: 4,349,702
Trainable params: 360,902
Non-trainable params: 3,988,800
__________________________________________________________________________________________________
Train on 6557 samples, validate on 825 samples
Epoch 1/30

 256/6557 [>.............................] - ETA: 45s - loss: 0.7407 - acc: 0.4766
…
2018-10-24 01:55:03.119175: I tensorflow/core/common_runtime/gpu/gpu_device.cc:1097] Created TensorFlow device (/job:localhost/replica:0/task:0/device:GPU:0 with 5278 MB memory) -> physical GPU (device: 0, name: Tesla K20Xm, pci bus id: 0000:84:00.0, compute capability: 3.5)
2018-10-24 01:55:03,339 : INFO : building model
2018-10-24 01:55:03,545 : INFO : training the model
__________________________________________________________________________________________________
Layer (type)                    Output Shape         Param #     Connected to                     
==================================================================================================
input_1 (InputLayer)            (None, 50)           0                                            
__________________________________________________________________________________________________
embedding_1 (Sequential)        (None, 50, 300, 1)   3988800     input_1[0][0]                    
__________________________________________________________________________________________________
conv2d_1 (Conv2D)               (None, 47, 1, 100)   120100      embedding_1[1][0]                
__________________________________________________________________________________________________
conv2d_2 (Conv2D)               (None, 46, 1, 100)   150100      embedding_1[1][0]                
__________________________________________________________________________________________________
conv2d_3 (Conv2D)               (None, 45, 1, 100)   180100      embedding_1[1][0]                
__________________________________________________________________________________________________
reshape_2 (Reshape)             (None, 47, 100)      0           conv2d_1[0][0]                   
__________________________________________________________________________________________________
reshape_3 (Reshape)             (None, 46, 100)      0           conv2d_2[0][0]                   
__________________________________________________________________________________________________
reshape_4 (Reshape)             (None, 45, 100)      0           conv2d_3[0][0]                   
__________________________________________________________________________________________________
global_max_pooling1d_1 (GlobalM (None, 100)          0           reshape_2[0][0]                  
__________________________________________________________________________________________________
global_max_pooling1d_2 (GlobalM (None, 100)          0           reshape_3[0][0]                  
__________________________________________________________________________________________________
global_max_pooling1d_3 (GlobalM (None, 100)          0           reshape_4[0][0]                  
__________________________________________________________________________________________________
concatenate_1 (Concatenate)     (None, 300)          0           global_max_pooling1d_1[0][0]     
                                                                 global_max_pooling1d_2[0][0]     
                                                                 global_max_pooling1d_3[0][0]     
__________________________________________________________________________________________________
dropout_1 (Dropout)             (None, 300)          0           concatenate_1[0][0]              
__________________________________________________________________________________________________
dense_1 (Dense)                 (None, 2)            602         dropout_1[0][0]                  
==================================================================================================
Total params: 4,439,702
Trainable params: 450,902
Non-trainable params: 3,988,800
__________________________________________________________________________________________________
Train on 6557 samples, validate on 825 samples
Epoch 1/30

 256/6557 [>.............................] - ETA: 45s - loss: 0.7415 - acc: 0.4844
…
2018-10-24 01:55:28.585422: I tensorflow/core/common_runtime/gpu/gpu_device.cc:1097] Created TensorFlow device (/job:localhost/replica:0/task:0/device:GPU:0 with 5278 MB memory) -> physical GPU (device: 0, name: Tesla K20Xm, pci bus id: 0000:84:00.0, compute capability: 3.5)
2018-10-24 01:55:28,803 : INFO : building model
2018-10-24 01:55:29,001 : INFO : training the model
__________________________________________________________________________________________________
Layer (type)                    Output Shape         Param #     Connected to                     
==================================================================================================
input_1 (InputLayer)            (None, 50)           0                                            
__________________________________________________________________________________________________
embedding_1 (Sequential)        (None, 50, 300, 1)   3988800     input_1[0][0]                    
__________________________________________________________________________________________________
conv2d_1 (Conv2D)               (None, 44, 1, 100)   210100      embedding_1[1][0]                
__________________________________________________________________________________________________
conv2d_2 (Conv2D)               (None, 43, 1, 100)   240100      embedding_1[1][0]                
__________________________________________________________________________________________________
conv2d_3 (Conv2D)               (None, 42, 1, 100)   270100      embedding_1[1][0]                
__________________________________________________________________________________________________
reshape_2 (Reshape)             (None, 44, 100)      0           conv2d_1[0][0]                   
__________________________________________________________________________________________________
reshape_3 (Reshape)             (None, 43, 100)      0           conv2d_2[0][0]                   
__________________________________________________________________________________________________
reshape_4 (Reshape)             (None, 42, 100)      0           conv2d_3[0][0]                   
__________________________________________________________________________________________________
global_max_pooling1d_1 (GlobalM (None, 100)          0           reshape_2[0][0]                  
__________________________________________________________________________________________________
global_max_pooling1d_2 (GlobalM (None, 100)          0           reshape_3[0][0]                  
__________________________________________________________________________________________________
global_max_pooling1d_3 (GlobalM (None, 100)          0           reshape_4[0][0]                  
__________________________________________________________________________________________________
concatenate_1 (Concatenate)     (None, 300)          0           global_max_pooling1d_1[0][0]     
                                                                 global_max_pooling1d_2[0][0]     
                                                                 global_max_pooling1d_3[0][0]     
__________________________________________________________________________________________________
dropout_1 (Dropout)             (None, 300)          0           concatenate_1[0][0]              
__________________________________________________________________________________________________
dense_1 (Dense)                 (None, 2)            602         dropout_1[0][0]                  
==================================================================================================
Total params: 4,709,702
Trainable params: 720,902
Non-trainable params: 3,988,800
__________________________________________________________________________________________________
Train on 6557 samples, validate on 825 samples
Epoch 1/30

 256/6557 [>.............................] - ETA: 48s - loss: 0.7305 - acc: 0.5039
…
2018-10-24 01:56:18.242500: I tensorflow/core/common_runtime/gpu/gpu_device.cc:1097] Created TensorFlow device (/job:localhost/replica:0/task:0/device:GPU:0 with 5278 MB memory) -> physical GPU (device: 0, name: Tesla K20Xm, pci bus id: 0000:84:00.0, compute capability: 3.5)
2018-10-24 01:56:18,460 : INFO : building model
2018-10-24 01:56:18,658 : INFO : training the model
__________________________________________________________________________________________________
Layer (type)                    Output Shape         Param #     Connected to                     
==================================================================================================
input_1 (InputLayer)            (None, 50)           0                                            
__________________________________________________________________________________________________
embedding_1 (Sequential)        (None, 50, 300, 1)   3988800     input_1[0][0]                    
__________________________________________________________________________________________________
conv2d_1 (Conv2D)               (None, 37, 1, 100)   420100      embedding_1[1][0]                
__________________________________________________________________________________________________
conv2d_2 (Conv2D)               (None, 36, 1, 100)   450100      embedding_1[1][0]                
__________________________________________________________________________________________________
conv2d_3 (Conv2D)               (None, 35, 1, 100)   480100      embedding_1[1][0]                
__________________________________________________________________________________________________
reshape_2 (Reshape)             (None, 37, 100)      0           conv2d_1[0][0]                   
__________________________________________________________________________________________________
reshape_3 (Reshape)             (None, 36, 100)      0           conv2d_2[0][0]                   
__________________________________________________________________________________________________
reshape_4 (Reshape)             (None, 35, 100)      0           conv2d_3[0][0]                   
__________________________________________________________________________________________________
global_max_pooling1d_1 (GlobalM (None, 100)          0           reshape_2[0][0]                  
__________________________________________________________________________________________________
global_max_pooling1d_2 (GlobalM (None, 100)          0           reshape_3[0][0]                  
__________________________________________________________________________________________________
global_max_pooling1d_3 (GlobalM (None, 100)          0           reshape_4[0][0]                  
__________________________________________________________________________________________________
concatenate_1 (Concatenate)     (None, 300)          0           global_max_pooling1d_1[0][0]     
                                                                 global_max_pooling1d_2[0][0]     
                                                                 global_max_pooling1d_3[0][0]     
__________________________________________________________________________________________________
dropout_1 (Dropout)             (None, 300)          0           concatenate_1[0][0]              
__________________________________________________________________________________________________
dense_1 (Dense)                 (None, 2)            602         dropout_1[0][0]                  
==================================================================================================
Total params: 5,339,702
Trainable params: 1,350,902
Non-trainable params: 3,988,800
__________________________________________________________________________________________________
Train on 6557 samples, validate on 825 samples
Epoch 1/30

 256/6557 [>.............................] - ETA: 1:26 - loss: 0.7359 - acc: 0.4609
…
2018-10-24 01:57:05.369512: I tensorflow/core/common_runtime/gpu/gpu_device.cc:1097] Created TensorFlow device (/job:localhost/replica:0/task:0/device:GPU:0 with 5278 MB memory) -> physical GPU (device: 0, name: Tesla K20Xm, pci bus id: 0000:84:00.0, compute capability: 3.5)
2018-10-24 01:57:05,588 : INFO : building model
2018-10-24 01:57:05,818 : INFO : training the model
__________________________________________________________________________________________________
Layer (type)                    Output Shape         Param #     Connected to                     
==================================================================================================
input_1 (InputLayer)            (None, 50)           0                                            
__________________________________________________________________________________________________
embedding_1 (Sequential)        (None, 50, 300, 1)   3988800     input_1[0][0]                    
__________________________________________________________________________________________________
conv2d_1 (Conv2D)               (None, 49, 1, 100)   60100       embedding_1[1][0]                
__________________________________________________________________________________________________
conv2d_2 (Conv2D)               (None, 48, 1, 100)   90100       embedding_1[1][0]                
__________________________________________________________________________________________________
conv2d_3 (Conv2D)               (None, 47, 1, 100)   120100      embedding_1[1][0]                
__________________________________________________________________________________________________
conv2d_4 (Conv2D)               (None, 46, 1, 100)   150100      embedding_1[1][0]                
__________________________________________________________________________________________________
reshape_2 (Reshape)             (None, 49, 100)      0           conv2d_1[0][0]                   
__________________________________________________________________________________________________
reshape_3 (Reshape)             (None, 48, 100)      0           conv2d_2[0][0]                   
__________________________________________________________________________________________________
reshape_4 (Reshape)             (None, 47, 100)      0           conv2d_3[0][0]                   
__________________________________________________________________________________________________
reshape_5 (Reshape)             (None, 46, 100)      0           conv2d_4[0][0]                   
__________________________________________________________________________________________________
global_max_pooling1d_1 (GlobalM (None, 100)          0           reshape_2[0][0]                  
__________________________________________________________________________________________________
global_max_pooling1d_2 (GlobalM (None, 100)          0           reshape_3[0][0]                  
__________________________________________________________________________________________________
global_max_pooling1d_3 (GlobalM (None, 100)          0           reshape_4[0][0]                  
__________________________________________________________________________________________________
global_max_pooling1d_4 (GlobalM (None, 100)          0           reshape_5[0][0]                  
__________________________________________________________________________________________________
concatenate_1 (Concatenate)     (None, 400)          0           global_max_pooling1d_1[0][0]     
                                                                 global_max_pooling1d_2[0][0]     
                                                                 global_max_pooling1d_3[0][0]     
                                                                 global_max_pooling1d_4[0][0]     
__________________________________________________________________________________________________
dropout_1 (Dropout)             (None, 400)          0           concatenate_1[0][0]              
__________________________________________________________________________________________________
dense_1 (Dense)                 (None, 2)            802         dropout_1[0][0]                  
==================================================================================================
Total params: 4,410,002
Trainable params: 421,202
Non-trainable params: 3,988,800
__________________________________________________________________________________________________
Train on 6557 samples, validate on 825 samples
Epoch 1/30

 256/6557 [>.............................] - ETA: 47s - loss: 0.7267 - acc: 0.4688
…
2018-10-24 01:57:28.799336: I tensorflow/core/common_runtime/gpu/gpu_device.cc:1097] Created TensorFlow device (/job:localhost/replica:0/task:0/device:GPU:0 with 5278 MB memory) -> physical GPU (device: 0, name: Tesla K20Xm, pci bus id: 0000:84:00.0, compute capability: 3.5)
2018-10-24 01:57:29,017 : INFO : building model
2018-10-24 01:57:29,246 : INFO : training the model
__________________________________________________________________________________________________
Layer (type)                    Output Shape         Param #     Connected to                     
==================================================================================================
input_1 (InputLayer)            (None, 50)           0                                            
__________________________________________________________________________________________________
embedding_1 (Sequential)        (None, 50, 300, 1)   3988800     input_1[0][0]                    
__________________________________________________________________________________________________
conv2d_1 (Conv2D)               (None, 45, 1, 100)   180100      embedding_1[1][0]                
__________________________________________________________________________________________________
conv2d_2 (Conv2D)               (None, 44, 1, 100)   210100      embedding_1[1][0]                
__________________________________________________________________________________________________
conv2d_3 (Conv2D)               (None, 43, 1, 100)   240100      embedding_1[1][0]                
__________________________________________________________________________________________________
conv2d_4 (Conv2D)               (None, 42, 1, 100)   270100      embedding_1[1][0]                
__________________________________________________________________________________________________
reshape_2 (Reshape)             (None, 45, 100)      0           conv2d_1[0][0]                   
__________________________________________________________________________________________________
reshape_3 (Reshape)             (None, 44, 100)      0           conv2d_2[0][0]                   
__________________________________________________________________________________________________
reshape_4 (Reshape)             (None, 43, 100)      0           conv2d_3[0][0]                   
__________________________________________________________________________________________________
reshape_5 (Reshape)             (None, 42, 100)      0           conv2d_4[0][0]                   
__________________________________________________________________________________________________
global_max_pooling1d_1 (GlobalM (None, 100)          0           reshape_2[0][0]                  
__________________________________________________________________________________________________
global_max_pooling1d_2 (GlobalM (None, 100)          0           reshape_3[0][0]                  
__________________________________________________________________________________________________
global_max_pooling1d_3 (GlobalM (None, 100)          0           reshape_4[0][0]                  
__________________________________________________________________________________________________
global_max_pooling1d_4 (GlobalM (None, 100)          0           reshape_5[0][0]                  
__________________________________________________________________________________________________
concatenate_1 (Concatenate)     (None, 400)          0           global_max_pooling1d_1[0][0]     
                                                                 global_max_pooling1d_2[0][0]     
                                                                 global_max_pooling1d_3[0][0]     
                                                                 global_max_pooling1d_4[0][0]     
__________________________________________________________________________________________________
dropout_1 (Dropout)             (None, 400)          0           concatenate_1[0][0]              
__________________________________________________________________________________________________
dense_1 (Dense)                 (None, 2)            802         dropout_1[0][0]                  
==================================================================================================
Total params: 4,890,002
Trainable params: 901,202
Non-trainable params: 3,988,800
__________________________________________________________________________________________________
Train on 6557 samples, validate on 825 samples
Epoch 1/30

 256/6557 [>.............................] - ETA: 51s - loss: 0.7290 - acc: 0.4531
…
2018-10-24 01:57:58.068715: I tensorflow/core/common_runtime/gpu/gpu_device.cc:1097] Created TensorFlow device (/job:localhost/replica:0/task:0/device:GPU:0 with 5278 MB memory) -> physical GPU (device: 0, name: Tesla K20Xm, pci bus id: 0000:84:00.0, compute capability: 3.5)
2018-10-24 01:57:58,286 : INFO : building model
2018-10-24 01:57:58,516 : INFO : training the model
__________________________________________________________________________________________________
Layer (type)                    Output Shape         Param #     Connected to                     
==================================================================================================
input_1 (InputLayer)            (None, 50)           0                                            
__________________________________________________________________________________________________
embedding_1 (Sequential)        (None, 50, 300, 1)   3988800     input_1[0][0]                    
__________________________________________________________________________________________________
conv2d_1 (Conv2D)               (None, 50, 1, 100)   30100       embedding_1[1][0]                
__________________________________________________________________________________________________
conv2d_2 (Conv2D)               (None, 48, 1, 100)   90100       embedding_1[1][0]                
__________________________________________________________________________________________________
conv2d_3 (Conv2D)               (None, 46, 1, 100)   150100      embedding_1[1][0]                
__________________________________________________________________________________________________
conv2d_4 (Conv2D)               (None, 44, 1, 100)   210100      embedding_1[1][0]                
__________________________________________________________________________________________________
reshape_2 (Reshape)             (None, 50, 100)      0           conv2d_1[0][0]                   
__________________________________________________________________________________________________
reshape_3 (Reshape)             (None, 48, 100)      0           conv2d_2[0][0]                   
__________________________________________________________________________________________________
reshape_4 (Reshape)             (None, 46, 100)      0           conv2d_3[0][0]                   
__________________________________________________________________________________________________
reshape_5 (Reshape)             (None, 44, 100)      0           conv2d_4[0][0]                   
__________________________________________________________________________________________________
global_max_pooling1d_1 (GlobalM (None, 100)          0           reshape_2[0][0]                  
__________________________________________________________________________________________________
global_max_pooling1d_2 (GlobalM (None, 100)          0           reshape_3[0][0]                  
__________________________________________________________________________________________________
global_max_pooling1d_3 (GlobalM (None, 100)          0           reshape_4[0][0]                  
__________________________________________________________________________________________________
global_max_pooling1d_4 (GlobalM (None, 100)          0           reshape_5[0][0]                  
__________________________________________________________________________________________________
concatenate_1 (Concatenate)     (None, 400)          0           global_max_pooling1d_1[0][0]     
                                                                 global_max_pooling1d_2[0][0]     
                                                                 global_max_pooling1d_3[0][0]     
                                                                 global_max_pooling1d_4[0][0]     
__________________________________________________________________________________________________
dropout_1 (Dropout)             (None, 400)          0           concatenate_1[0][0]              
__________________________________________________________________________________________________
dense_1 (Dense)                 (None, 2)            802         dropout_1[0][0]                  
==================================================================================================
Total params: 4,470,002
Trainable params: 481,202
Non-trainable params: 3,988,800
__________________________________________________________________________________________________
Train on 6557 samples, validate on 825 samples
Epoch 1/30

 256/6557 [>.............................] - ETA: 47s - loss: 0.7238 - acc: 0.4844
…
