…
2018-10-25 17:27:11.261426: I tensorflow/core/common_runtime/gpu/gpu_device.cc:984] 0:   N 
2018-10-25 17:27:11.261710: I tensorflow/core/common_runtime/gpu/gpu_device.cc:1097] Created TensorFlow device (/job:localhost/replica:0/task:0/device:GPU:0 with 5278 MB memory) -> physical GPU (device: 0, name: Tesla K20Xm, pci bus id: 0000:03:00.0, compute capability: 3.5)
2018-10-25 17:27:11,504 : INFO : training the model
_________________________________________________________________
Layer (type)                 Output Shape              Param #   
=================================================================
input_1 (InputLayer)         (None, 50)                0         
_________________________________________________________________
embedding_1 (Embedding)      (None, 50, 300)           3988800   
_________________________________________________________________
conv1d_1 (Conv1D)            (None, 50, 100)           30100     
_________________________________________________________________
activation_1 (Activation)    (None, 50, 100)           0         
_________________________________________________________________
global_max_pooling1d_1 (Glob (None, 100)               0         
_________________________________________________________________
dropout_1 (Dropout)          (None, 100)               0         
_________________________________________________________________
dense_1 (Dense)              (None, 2)                 202       
=================================================================
Total params: 4,019,102
Trainable params: 30,302
Non-trainable params: 3,988,800
_________________________________________________________________
Train on 6557 samples, validate on 825 samples
Epoch 1/30

 256/6557 [>.............................] - ETA: 43s - loss: 1.3787 - acc: 0.4805
2048/6557 [========>.....................] - ETA: 4s - loss: 1.1070 - acc: 0.5220 
…
2018-10-25 17:29:17.983269: I tensorflow/core/common_runtime/gpu/gpu_device.cc:984] 0:   N 
2018-10-25 17:29:17.983551: I tensorflow/core/common_runtime/gpu/gpu_device.cc:1097] Created TensorFlow device (/job:localhost/replica:0/task:0/device:GPU:0 with 5278 MB memory) -> physical GPU (device: 0, name: Tesla K20Xm, pci bus id: 0000:03:00.0, compute capability: 3.5)
2018-10-25 17:29:18,214 : INFO : training the model
_________________________________________________________________
Layer (type)                 Output Shape              Param #   
=================================================================
input_1 (InputLayer)         (None, 50)                0         
_________________________________________________________________
embedding_1 (Embedding)      (None, 50, 300)           3988800   
_________________________________________________________________
conv1d_1 (Conv1D)            (None, 48, 100)           90100     
_________________________________________________________________
activation_1 (Activation)    (None, 48, 100)           0         
_________________________________________________________________
global_max_pooling1d_1 (Glob (None, 100)               0         
_________________________________________________________________
dropout_1 (Dropout)          (None, 100)               0         
_________________________________________________________________
dense_1 (Dense)              (None, 2)                 202       
=================================================================
Total params: 4,079,102
Trainable params: 90,302
Non-trainable params: 3,988,800
_________________________________________________________________
Train on 6557 samples, validate on 825 samples
Epoch 1/30

 256/6557 [>.............................] - ETA: 44s - loss: 1.0855 - acc: 0.5000
1536/6557 [======>.......................] - ETA: 6s - loss: 1.2027 - acc: 0.5078 
…
2018-10-25 17:31:24.569795: I tensorflow/core/common_runtime/gpu/gpu_device.cc:984] 0:   N 
2018-10-25 17:31:24.570067: I tensorflow/core/common_runtime/gpu/gpu_device.cc:1097] Created TensorFlow device (/job:localhost/replica:0/task:0/device:GPU:0 with 5278 MB memory) -> physical GPU (device: 0, name: Tesla K20Xm, pci bus id: 0000:03:00.0, compute capability: 3.5)
2018-10-25 17:31:24,785 : INFO : training the model
_________________________________________________________________
Layer (type)                 Output Shape              Param #   
=================================================================
input_1 (InputLayer)         (None, 50)                0         
_________________________________________________________________
embedding_1 (Embedding)      (None, 50, 300)           3988800   
_________________________________________________________________
conv1d_1 (Conv1D)            (None, 46, 100)           150100    
_________________________________________________________________
activation_1 (Activation)    (None, 46, 100)           0         
_________________________________________________________________
global_max_pooling1d_1 (Glob (None, 100)               0         
_________________________________________________________________
dropout_1 (Dropout)          (None, 100)               0         
_________________________________________________________________
dense_1 (Dense)              (None, 2)                 202       
=================================================================
Total params: 4,139,102
Trainable params: 150,302
Non-trainable params: 3,988,800
_________________________________________________________________
Train on 6557 samples, validate on 825 samples
Epoch 1/30

 256/6557 [>.............................] - ETA: 44s - loss: 1.0403 - acc: 0.5195
1536/6557 [======>.......................] - ETA: 6s - loss: 1.2860 - acc: 0.5091 
…
2018-10-25 17:33:28.436272: I tensorflow/core/common_runtime/gpu/gpu_device.cc:1097] Created TensorFlow device (/job:localhost/replica:0/task:0/device:GPU:0 with 5278 MB memory) -> physical GPU (device: 0, name: Tesla K20Xm, pci bus id: 0000:03:00.0, compute capability: 3.5)
2018-10-25 17:33:28,725 : INFO : training the model
__________________________________________________________________________________________________
Layer (type)                    Output Shape         Param #     Connected to                     
==================================================================================================
input_1 (InputLayer)            (None, 50)           0                                            
__________________________________________________________________________________________________
embedding_1 (Embedding)         (None, 50, 300)      3988800     input_1[0][0]                    
__________________________________________________________________________________________________
conv1d_1 (Conv1D)               (None, 49, 100)      60100       embedding_1[0][0]                
__________________________________________________________________________________________________
conv1d_2 (Conv1D)               (None, 48, 100)      90100       embedding_1[0][0]                
__________________________________________________________________________________________________
conv1d_3 (Conv1D)               (None, 47, 100)      120100      embedding_1[0][0]                
__________________________________________________________________________________________________
activation_1 (Activation)       (None, 49, 100)      0           conv1d_1[0][0]                   
__________________________________________________________________________________________________
activation_2 (Activation)       (None, 48, 100)      0           conv1d_2[0][0]                   
__________________________________________________________________________________________________
activation_3 (Activation)       (None, 47, 100)      0           conv1d_3[0][0]                   
__________________________________________________________________________________________________
global_max_pooling1d_1 (GlobalM (None, 100)          0           activation_1[0][0]               
__________________________________________________________________________________________________
global_max_pooling1d_2 (GlobalM (None, 100)          0           activation_2[0][0]               
__________________________________________________________________________________________________
global_max_pooling1d_3 (GlobalM (None, 100)          0           activation_3[0][0]               
__________________________________________________________________________________________________
concatenate_1 (Concatenate)     (None, 300)          0           global_max_pooling1d_1[0][0]     
                                                                 global_max_pooling1d_2[0][0]     
                                                                 global_max_pooling1d_3[0][0]     
__________________________________________________________________________________________________
dropout_1 (Dropout)             (None, 300)          0           concatenate_1[0][0]              
__________________________________________________________________________________________________
dense_1 (Dense)                 (None, 2)            602         dropout_1[0][0]                  
==================================================================================================
Total params: 4,259,702
Trainable params: 270,902
Non-trainable params: 3,988,800
__________________________________________________________________________________________________
Train on 6557 samples, validate on 825 samples
Epoch 1/30

 256/6557 [>.............................] - ETA: 1:03 - loss: 1.1142 - acc: 0.5117
…
2018-10-25 17:35:49.491205: I tensorflow/core/common_runtime/gpu/gpu_device.cc:1097] Created TensorFlow device (/job:localhost/replica:0/task:0/device:GPU:0 with 5278 MB memory) -> physical GPU (device: 0, name: Tesla K20Xm, pci bus id: 0000:03:00.0, compute capability: 3.5)
2018-10-25 17:35:49,765 : INFO : training the model
__________________________________________________________________________________________________
Layer (type)                    Output Shape         Param #     Connected to                     
==================================================================================================
input_1 (InputLayer)            (None, 50)           0                                            
__________________________________________________________________________________________________
embedding_1 (Embedding)         (None, 50, 300)      3988800     input_1[0][0]                    
__________________________________________________________________________________________________
conv1d_1 (Conv1D)               (None, 48, 100)      90100       embedding_1[0][0]                
__________________________________________________________________________________________________
conv1d_2 (Conv1D)               (None, 47, 100)      120100      embedding_1[0][0]                
__________________________________________________________________________________________________
conv1d_3 (Conv1D)               (None, 46, 100)      150100      embedding_1[0][0]                
__________________________________________________________________________________________________
activation_1 (Activation)       (None, 48, 100)      0           conv1d_1[0][0]                   
__________________________________________________________________________________________________
activation_2 (Activation)       (None, 47, 100)      0           conv1d_2[0][0]                   
__________________________________________________________________________________________________
activation_3 (Activation)       (None, 46, 100)      0           conv1d_3[0][0]                   
__________________________________________________________________________________________________
global_max_pooling1d_1 (GlobalM (None, 100)          0           activation_1[0][0]               
__________________________________________________________________________________________________
global_max_pooling1d_2 (GlobalM (None, 100)          0           activation_2[0][0]               
__________________________________________________________________________________________________
global_max_pooling1d_3 (GlobalM (None, 100)          0           activation_3[0][0]               
__________________________________________________________________________________________________
concatenate_1 (Concatenate)     (None, 300)          0           global_max_pooling1d_1[0][0]     
                                                                 global_max_pooling1d_2[0][0]     
                                                                 global_max_pooling1d_3[0][0]     
__________________________________________________________________________________________________
dropout_1 (Dropout)             (None, 300)          0           concatenate_1[0][0]              
__________________________________________________________________________________________________
dense_1 (Dense)                 (None, 2)            602         dropout_1[0][0]                  
==================================================================================================
Total params: 4,349,702
Trainable params: 360,902
Non-trainable params: 3,988,800
__________________________________________________________________________________________________
Train on 6557 samples, validate on 825 samples
Epoch 1/30

 256/6557 [>.............................] - ETA: 1:04 - loss: 1.0831 - acc: 0.5078
…
2018-10-25 17:38:06.313125: I tensorflow/core/common_runtime/gpu/gpu_device.cc:1097] Created TensorFlow device (/job:localhost/replica:0/task:0/device:GPU:0 with 5278 MB memory) -> physical GPU (device: 0, name: Tesla K20Xm, pci bus id: 0000:03:00.0, compute capability: 3.5)
2018-10-25 17:38:06,624 : INFO : training the model
__________________________________________________________________________________________________
Layer (type)                    Output Shape         Param #     Connected to                     
==================================================================================================
input_1 (InputLayer)            (None, 50)           0                                            
__________________________________________________________________________________________________
embedding_1 (Embedding)         (None, 50, 300)      3988800     input_1[0][0]                    
__________________________________________________________________________________________________
conv1d_1 (Conv1D)               (None, 47, 100)      120100      embedding_1[0][0]                
__________________________________________________________________________________________________
conv1d_2 (Conv1D)               (None, 46, 100)      150100      embedding_1[0][0]                
__________________________________________________________________________________________________
conv1d_3 (Conv1D)               (None, 45, 100)      180100      embedding_1[0][0]                
__________________________________________________________________________________________________
activation_1 (Activation)       (None, 47, 100)      0           conv1d_1[0][0]                   
__________________________________________________________________________________________________
activation_2 (Activation)       (None, 46, 100)      0           conv1d_2[0][0]                   
__________________________________________________________________________________________________
activation_3 (Activation)       (None, 45, 100)      0           conv1d_3[0][0]                   
__________________________________________________________________________________________________
global_max_pooling1d_1 (GlobalM (None, 100)          0           activation_1[0][0]               
__________________________________________________________________________________________________
global_max_pooling1d_2 (GlobalM (None, 100)          0           activation_2[0][0]               
__________________________________________________________________________________________________
global_max_pooling1d_3 (GlobalM (None, 100)          0           activation_3[0][0]               
__________________________________________________________________________________________________
concatenate_1 (Concatenate)     (None, 300)          0           global_max_pooling1d_1[0][0]     
                                                                 global_max_pooling1d_2[0][0]     
                                                                 global_max_pooling1d_3[0][0]     
__________________________________________________________________________________________________
dropout_1 (Dropout)             (None, 300)          0           concatenate_1[0][0]              
__________________________________________________________________________________________________
dense_1 (Dense)                 (None, 2)            602         dropout_1[0][0]                  
==================================================================================================
Total params: 4,439,702
Trainable params: 450,902
Non-trainable params: 3,988,800
__________________________________________________________________________________________________
Train on 6557 samples, validate on 825 samples
Epoch 1/30

 256/6557 [>.............................] - ETA: 58s - loss: 1.0676 - acc: 0.5117
…
2018-10-25 17:40:31.596198: I tensorflow/core/common_runtime/gpu/gpu_device.cc:1097] Created TensorFlow device (/job:localhost/replica:0/task:0/device:GPU:0 with 5278 MB memory) -> physical GPU (device: 0, name: Tesla K20Xm, pci bus id: 0000:03:00.0, compute capability: 3.5)
2018-10-25 17:40:31,900 : INFO : training the model
__________________________________________________________________________________________________
Layer (type)                    Output Shape         Param #     Connected to                     
==================================================================================================
input_1 (InputLayer)            (None, 50)           0                                            
__________________________________________________________________________________________________
embedding_1 (Embedding)         (None, 50, 300)      3988800     input_1[0][0]                    
__________________________________________________________________________________________________
conv1d_1 (Conv1D)               (None, 44, 100)      210100      embedding_1[0][0]                
__________________________________________________________________________________________________
conv1d_2 (Conv1D)               (None, 43, 100)      240100      embedding_1[0][0]                
__________________________________________________________________________________________________
conv1d_3 (Conv1D)               (None, 42, 100)      270100      embedding_1[0][0]                
__________________________________________________________________________________________________
activation_1 (Activation)       (None, 44, 100)      0           conv1d_1[0][0]                   
__________________________________________________________________________________________________
activation_2 (Activation)       (None, 43, 100)      0           conv1d_2[0][0]                   
__________________________________________________________________________________________________
activation_3 (Activation)       (None, 42, 100)      0           conv1d_3[0][0]                   
__________________________________________________________________________________________________
global_max_pooling1d_1 (GlobalM (None, 100)          0           activation_1[0][0]               
__________________________________________________________________________________________________
global_max_pooling1d_2 (GlobalM (None, 100)          0           activation_2[0][0]               
__________________________________________________________________________________________________
global_max_pooling1d_3 (GlobalM (None, 100)          0           activation_3[0][0]               
__________________________________________________________________________________________________
concatenate_1 (Concatenate)     (None, 300)          0           global_max_pooling1d_1[0][0]     
                                                                 global_max_pooling1d_2[0][0]     
                                                                 global_max_pooling1d_3[0][0]     
__________________________________________________________________________________________________
dropout_1 (Dropout)             (None, 300)          0           concatenate_1[0][0]              
__________________________________________________________________________________________________
dense_1 (Dense)                 (None, 2)            602         dropout_1[0][0]                  
==================================================================================================
Total params: 4,709,702
Trainable params: 720,902
Non-trainable params: 3,988,800
__________________________________________________________________________________________________
Train on 6557 samples, validate on 825 samples
Epoch 1/30

 256/6557 [>.............................] - ETA: 1:15 - loss: 0.9974 - acc: 0.4844
…
2018-10-25 17:43:03.378379: I tensorflow/core/common_runtime/gpu/gpu_device.cc:1097] Created TensorFlow device (/job:localhost/replica:0/task:0/device:GPU:0 with 5278 MB memory) -> physical GPU (device: 0, name: Tesla K20Xm, pci bus id: 0000:03:00.0, compute capability: 3.5)
2018-10-25 17:43:03,690 : INFO : training the model
__________________________________________________________________________________________________
Layer (type)                    Output Shape         Param #     Connected to                     
==================================================================================================
input_1 (InputLayer)            (None, 50)           0                                            
__________________________________________________________________________________________________
embedding_1 (Embedding)         (None, 50, 300)      3988800     input_1[0][0]                    
__________________________________________________________________________________________________
conv1d_1 (Conv1D)               (None, 37, 100)      420100      embedding_1[0][0]                
__________________________________________________________________________________________________
conv1d_2 (Conv1D)               (None, 36, 100)      450100      embedding_1[0][0]                
__________________________________________________________________________________________________
conv1d_3 (Conv1D)               (None, 35, 100)      480100      embedding_1[0][0]                
__________________________________________________________________________________________________
activation_1 (Activation)       (None, 37, 100)      0           conv1d_1[0][0]                   
__________________________________________________________________________________________________
activation_2 (Activation)       (None, 36, 100)      0           conv1d_2[0][0]                   
__________________________________________________________________________________________________
activation_3 (Activation)       (None, 35, 100)      0           conv1d_3[0][0]                   
__________________________________________________________________________________________________
global_max_pooling1d_1 (GlobalM (None, 100)          0           activation_1[0][0]               
__________________________________________________________________________________________________
global_max_pooling1d_2 (GlobalM (None, 100)          0           activation_2[0][0]               
__________________________________________________________________________________________________
global_max_pooling1d_3 (GlobalM (None, 100)          0           activation_3[0][0]               
__________________________________________________________________________________________________
concatenate_1 (Concatenate)     (None, 300)          0           global_max_pooling1d_1[0][0]     
                                                                 global_max_pooling1d_2[0][0]     
                                                                 global_max_pooling1d_3[0][0]     
__________________________________________________________________________________________________
dropout_1 (Dropout)             (None, 300)          0           concatenate_1[0][0]              
__________________________________________________________________________________________________
dense_1 (Dense)                 (None, 2)            602         dropout_1[0][0]                  
==================================================================================================
Total params: 5,339,702
Trainable params: 1,350,902
Non-trainable params: 3,988,800
__________________________________________________________________________________________________
Train on 6557 samples, validate on 825 samples
Epoch 1/30

 256/6557 [>.............................] - ETA: 1:19 - loss: 0.9492 - acc: 0.4844
…
2018-10-25 17:45:44.563436: I tensorflow/core/common_runtime/gpu/gpu_device.cc:1097] Created TensorFlow device (/job:localhost/replica:0/task:0/device:GPU:0 with 5278 MB memory) -> physical GPU (device: 0, name: Tesla K20Xm, pci bus id: 0000:03:00.0, compute capability: 3.5)
2018-10-25 17:45:44,901 : INFO : training the model
__________________________________________________________________________________________________
Layer (type)                    Output Shape         Param #     Connected to                     
==================================================================================================
input_1 (InputLayer)            (None, 50)           0                                            
__________________________________________________________________________________________________
embedding_1 (Embedding)         (None, 50, 300)      3988800     input_1[0][0]                    
__________________________________________________________________________________________________
conv1d_1 (Conv1D)               (None, 49, 100)      60100       embedding_1[0][0]                
__________________________________________________________________________________________________
conv1d_2 (Conv1D)               (None, 48, 100)      90100       embedding_1[0][0]                
__________________________________________________________________________________________________
conv1d_3 (Conv1D)               (None, 47, 100)      120100      embedding_1[0][0]                
__________________________________________________________________________________________________
conv1d_4 (Conv1D)               (None, 46, 100)      150100      embedding_1[0][0]                
__________________________________________________________________________________________________
activation_1 (Activation)       (None, 49, 100)      0           conv1d_1[0][0]                   
__________________________________________________________________________________________________
activation_2 (Activation)       (None, 48, 100)      0           conv1d_2[0][0]                   
__________________________________________________________________________________________________
activation_3 (Activation)       (None, 47, 100)      0           conv1d_3[0][0]                   
__________________________________________________________________________________________________
activation_4 (Activation)       (None, 46, 100)      0           conv1d_4[0][0]                   
__________________________________________________________________________________________________
global_max_pooling1d_1 (GlobalM (None, 100)          0           activation_1[0][0]               
__________________________________________________________________________________________________
global_max_pooling1d_2 (GlobalM (None, 100)          0           activation_2[0][0]               
__________________________________________________________________________________________________
global_max_pooling1d_3 (GlobalM (None, 100)          0           activation_3[0][0]               
__________________________________________________________________________________________________
global_max_pooling1d_4 (GlobalM (None, 100)          0           activation_4[0][0]               
__________________________________________________________________________________________________
concatenate_1 (Concatenate)     (None, 400)          0           global_max_pooling1d_1[0][0]     
                                                                 global_max_pooling1d_2[0][0]     
                                                                 global_max_pooling1d_3[0][0]     
                                                                 global_max_pooling1d_4[0][0]     
__________________________________________________________________________________________________
dropout_1 (Dropout)             (None, 400)          0           concatenate_1[0][0]              
__________________________________________________________________________________________________
dense_1 (Dense)                 (None, 2)            802         dropout_1[0][0]                  
==================================================================================================
Total params: 4,410,002
Trainable params: 421,202
Non-trainable params: 3,988,800
__________________________________________________________________________________________________
Train on 6557 samples, validate on 825 samples
Epoch 1/30

 256/6557 [>.............................] - ETA: 1:21 - loss: 1.0189 - acc: 0.5000
…
2018-10-25 17:48:14.877699: I tensorflow/core/common_runtime/gpu/gpu_device.cc:1097] Created TensorFlow device (/job:localhost/replica:0/task:0/device:GPU:0 with 5278 MB memory) -> physical GPU (device: 0, name: Tesla K20Xm, pci bus id: 0000:03:00.0, compute capability: 3.5)
2018-10-25 17:48:15,206 : INFO : training the model
__________________________________________________________________________________________________
Layer (type)                    Output Shape         Param #     Connected to                     
==================================================================================================
input_1 (InputLayer)            (None, 50)           0                                            
__________________________________________________________________________________________________
embedding_1 (Embedding)         (None, 50, 300)      3988800     input_1[0][0]                    
__________________________________________________________________________________________________
conv1d_1 (Conv1D)               (None, 45, 100)      180100      embedding_1[0][0]                
__________________________________________________________________________________________________
conv1d_2 (Conv1D)               (None, 44, 100)      210100      embedding_1[0][0]                
__________________________________________________________________________________________________
conv1d_3 (Conv1D)               (None, 43, 100)      240100      embedding_1[0][0]                
__________________________________________________________________________________________________
conv1d_4 (Conv1D)               (None, 42, 100)      270100      embedding_1[0][0]                
__________________________________________________________________________________________________
activation_1 (Activation)       (None, 45, 100)      0           conv1d_1[0][0]                   
__________________________________________________________________________________________________
activation_2 (Activation)       (None, 44, 100)      0           conv1d_2[0][0]                   
__________________________________________________________________________________________________
activation_3 (Activation)       (None, 43, 100)      0           conv1d_3[0][0]                   
__________________________________________________________________________________________________
activation_4 (Activation)       (None, 42, 100)      0           conv1d_4[0][0]                   
__________________________________________________________________________________________________
global_max_pooling1d_1 (GlobalM (None, 100)          0           activation_1[0][0]               
__________________________________________________________________________________________________
global_max_pooling1d_2 (GlobalM (None, 100)          0           activation_2[0][0]               
__________________________________________________________________________________________________
global_max_pooling1d_3 (GlobalM (None, 100)          0           activation_3[0][0]               
__________________________________________________________________________________________________
global_max_pooling1d_4 (GlobalM (None, 100)          0           activation_4[0][0]               
__________________________________________________________________________________________________
concatenate_1 (Concatenate)     (None, 400)          0           global_max_pooling1d_1[0][0]     
                                                                 global_max_pooling1d_2[0][0]     
                                                                 global_max_pooling1d_3[0][0]     
                                                                 global_max_pooling1d_4[0][0]     
__________________________________________________________________________________________________
dropout_1 (Dropout)             (None, 400)          0           concatenate_1[0][0]              
__________________________________________________________________________________________________
dense_1 (Dense)                 (None, 2)            802         dropout_1[0][0]                  
==================================================================================================
Total params: 4,890,002
Trainable params: 901,202
Non-trainable params: 3,988,800
__________________________________________________________________________________________________
Train on 6557 samples, validate on 825 samples
Epoch 1/30

 256/6557 [>.............................] - ETA: 1:26 - loss: 0.9822 - acc: 0.4961
…
2018-10-25 17:50:48.356738: I tensorflow/core/common_runtime/gpu/gpu_device.cc:1097] Created TensorFlow device (/job:localhost/replica:0/task:0/device:GPU:0 with 5278 MB memory) -> physical GPU (device: 0, name: Tesla K20Xm, pci bus id: 0000:03:00.0, compute capability: 3.5)
2018-10-25 17:50:48,685 : INFO : training the model
__________________________________________________________________________________________________
Layer (type)                    Output Shape         Param #     Connected to                     
==================================================================================================
input_1 (InputLayer)            (None, 50)           0                                            
__________________________________________________________________________________________________
embedding_1 (Embedding)         (None, 50, 300)      3988800     input_1[0][0]                    
__________________________________________________________________________________________________
conv1d_1 (Conv1D)               (None, 50, 100)      30100       embedding_1[0][0]                
__________________________________________________________________________________________________
conv1d_2 (Conv1D)               (None, 48, 100)      90100       embedding_1[0][0]                
__________________________________________________________________________________________________
conv1d_3 (Conv1D)               (None, 46, 100)      150100      embedding_1[0][0]                
__________________________________________________________________________________________________
conv1d_4 (Conv1D)               (None, 44, 100)      210100      embedding_1[0][0]                
__________________________________________________________________________________________________
activation_1 (Activation)       (None, 50, 100)      0           conv1d_1[0][0]                   
__________________________________________________________________________________________________
activation_2 (Activation)       (None, 48, 100)      0           conv1d_2[0][0]                   
__________________________________________________________________________________________________
activation_3 (Activation)       (None, 46, 100)      0           conv1d_3[0][0]                   
__________________________________________________________________________________________________
activation_4 (Activation)       (None, 44, 100)      0           conv1d_4[0][0]                   
__________________________________________________________________________________________________
global_max_pooling1d_1 (GlobalM (None, 100)          0           activation_1[0][0]               
__________________________________________________________________________________________________
global_max_pooling1d_2 (GlobalM (None, 100)          0           activation_2[0][0]               
__________________________________________________________________________________________________
global_max_pooling1d_3 (GlobalM (None, 100)          0           activation_3[0][0]               
__________________________________________________________________________________________________
global_max_pooling1d_4 (GlobalM (None, 100)          0           activation_4[0][0]               
__________________________________________________________________________________________________
concatenate_1 (Concatenate)     (None, 400)          0           global_max_pooling1d_1[0][0]     
                                                                 global_max_pooling1d_2[0][0]     
                                                                 global_max_pooling1d_3[0][0]     
                                                                 global_max_pooling1d_4[0][0]     
__________________________________________________________________________________________________
dropout_1 (Dropout)             (None, 400)          0           concatenate_1[0][0]              
__________________________________________________________________________________________________
dense_1 (Dense)                 (None, 2)            802         dropout_1[0][0]                  
==================================================================================================
Total params: 4,470,002
Trainable params: 481,202
Non-trainable params: 3,988,800
__________________________________________________________________________________________________
Train on 6557 samples, validate on 825 samples
Epoch 1/30

 256/6557 [>.............................] - ETA: 1:23 - loss: 1.0035 - acc: 0.5039
…
